assets/models/fashion_classification_model.tflite (tflite, 942884 bytes, 6 tensors)

arith.constant f4 [10, 128]
-0.042169414 0.17329063 0.07395388 -0.10403884 -0.30499297 -0.21601681 -0.05149685 -0.29331326
0.08270453 -0.15972526 0.074355 0.03376436 0.014130859 0.048705604 -0.1691354 -0.25384438
0.1966627 -0.24146469 -0.23383813 0.1695831 0.050601542 0.081196964 0.16544873 -0.09327155
-0.2991182 -0.16846524 0.09256666 -0.22961606 -0.062553585 -0.12419144 0.1578721 0.15671673
-0.19675417 -0.15254487 -0.09415586 -0.010844082 -0.14132139 -0.06758597 0.027717864 -0.06287986
-0.038602352 0.105614886 -0.16438492 -0.027901972 0.11969492 0.08697303 -0.03277143 0.031950317
-0.1623331 -0.16331685 -0.20431879 0.15554646 -0.09153288 -0.194629 -0.12928665 0.019127745
0.10694071 0.059384577 0.16842338 -0.2485367 -0.24345995 0.11644418 -0.34501263 0.12275467
-0.18490627 0.052229583 0.14365257 0.15014921 -0.03194296 -0.08174209 -0.040743146 0.053921733
0.08297239 0.061555114 -0.17050067 0.052970022 0.05550829 -0.16201755 -0.1955113 -0.2033525
-0.015359389 -0.20240985 -0.1482881 0.04972234 0.036912106 0.124873474 0.1412284 -0.39279452
0.07290282 0.08122943 0.13798335 -0.16174078 -0.13267633 -0.06642223 -0.10622968 -0.16134697
-0.035356436 -0.25909182 -0.1154727 -0.00020075515 0.09822254 -0.046904795 -0.12731019 -0.11298422
0.0023507588 0.07649481 0.058658887 -0.09558346 -0.1194804 -0.16016118 -0.049038354 0.14370169
0.18677254 0.10618486 -0.051209655 -0.06070189 -0.011279323 -0.10845502 0.1609588 -0.06967094
-0.10902302 0.09126932 0.089939125 -0.23667137 -0.32373863 0.10230927 0.06645774 -0.015124521
-0.22988327 -0.42671677 0.09715848 -0.105121695 0.06542173 -0.05006212 -0.35398048 -0.37132314
-0.36966473 0.100826226 -0.01708881 0.12610595 -0.01745824 0.20762034 -0.20244569 -0.097185224
0.039523773 -0.44611034 -0.08220268 -0.32430452 -0.24824615 -0.2615658 0.24106821 -0.36823386
0.021547701 -0.22041927 -0.29315832 -0.12215543 -0.045960702 0.12415846 -0.17754994 0.09966509
-0.04377318 0.27522722 0.16866508 -0.10950978 0.060250875 0.11434327 -0.27907756 -0.26367605
-0.19831158 0.14587177 0.03357729 -0.030579539 -0.028508672 -0.23981123 0.113402516 -0.16200544
-0.13049176 -0.56390345 -0.058846775 -0.37909755 0.24022084 -0.038805675 -0.05737254 -0.22157587
0.02496801 0.18802658 -0.42544347 0.08485562 -0.11340119 -0.040254284 -0.47501844 0.14335571
-0.37565035 -0.1467639 -0.29682857 0.14424281 -0.24553779 -0.2068966 0.18846965 0.065590926
0.007389878 0.10034968 -0.30682784 -0.227567 -0.3731167 0.058442593 -0.07135172 0.15654632
0.021530164 0.07966049 -0.24096932 -0.22314395 0.117828816 -0.07087958 -0.23682067 -0.33883834
0.12406503 -0.23653479 -0.079692 -0.4489011 0.12672777 -0.018257184 -0.26589805 -0.13480519
-0.23474844 0.046881687 -0.25323844 0.06108228 -0.28443485 -0.0015279539 -0.3039388 -0.12399567
-0.030079653 0.14812815 -0.113637246 0.23007178 -0.035323035 -0.392559 0.12375765 -0.43925998
0.11896704 -0.21118994 0.122324295 -0.028559912 0.044733584 0.11122424 0.016243082 0.09320335
0.04353868 -0.2776241 0.13487248 0.176354 -0.37741846 -0.034543917 0.12214999 -0.44181538
00000000: d6b9 2cbd 1973 313e 2275 973d 5112 d5bd
00000010: 0a28 9cbe 8333 5dbe 5cee 52bd 282d 96be
00000020: fe60 a93d 058f 23be 6f47 983d 7f4c 0a3d
00000030: 1e85 673c 877f 473d d531 2dbe e4f7 81be
00000040: f261 493e 8542 77be 4373 6fbe 31a7 2d3e
00000050: 9043 4f3d 984a a63d 646b 293e 2805 bfbd
00000060: 0526 99be 2782 2cbe 9793 bd3d 7920 6bbe
00000070: 181c 80bd 1558 febd 39a9 213e 5a7a 203e
00000080: ed79 49be b934 1cbe cad4 c0bd 60ab 31bc
00000090: 8eb6 10be 836a 8abd 9310 e33c 28c7 80bd
000000a0: 801d 1ebd 9e4c d83d 8554 28be ad92 e4bc
000000b0: 9c22 f53d ea1e b23d 563b 06bd 56de 023d
000000c0: a63a 26be 883c 27be f238 51be 9247 1f3e
000000d0: 9775 bbbd d34c 47be b863 04be cab1 9c3c
000000e0: bb03 db3d 3e3d 733d 2e77 2c3e 6880 7ebe
000000f0: 914d 79be 497a ee3d 7fa5 b0be cd66 fb3d
00000100: 1258 3dbe b0ee 553d a919 133e b7c0 193e
00000110: 9fd6 02bd 6668 a7bd 49e2 26bd 09dd 5c3d
00000120: 6eed a93d 3721 7c3d ba97 2ebe 18f7 583d
00000130: a95c 633d eee7 25be 1d34 48be a33b 50be
00000140: f2a5 7bbc 8744 4fbe d6d8 17be a7a9 4b3d
00000150: 2631 173d aabd ff3d 2d9e 103e 5d1c c9be
00000160: 134e 953d 9e5b a63d 824b 0d3e 609f 25be
00000170: 4edc 07be 6108 88bd f28e d9bd 2438 25be
00000180: e9d1 10bd afa7 84be f37c ecbd cd81 52b9
00000190: e628 c93d 3e1f 40bd 9a5d 02be 4564 e7bd
000001a0: 300f 1a3b 50a9 9c3d 4d44 703d 43c1 c3bd
000001b0: 24b2 f4bd 4b01 24be 71dc 48bd 8926 133e
000001c0: 4d41 3f3e 7377 d93d 37c1 51bd 8ca2 78bd
000001d0: e9cc 38bc aa1d debd 62d2 243e a3af 8ebd
000001e0: 7647 dfbd 69eb ba3d 0132 b83d fb59 72be
000001f0: 12c1 a5be 8687 d13d ff1a 883d d7cc 77bc
00000200: 8566 6bbe 9f7a dabe 06fb c63d 0b4a d7bd
00000210: d4fb 853d f00d 4dbd ee3c b5be 111e bebe
00000220: b244 bdbe fb7d ce3d d5fd 8bbc eb21 013e
00000230: 9504 8fbc 6d9a 543e ec4d 4fbe 0c09 c7bd
00000240: aee3 213d 9368 e4be e159 a8bd 3e0b a6be
00000250: 3d34 7ebe f4eb 85be 96da 763e 2689 bcbe
00000260: ce84 b03c 97b5 61be d918 96be a02c fabd
00000270: 4a41 3cbd ca46 fe3d a7cf 35be 361d cc3d
00000280: 824b 33bd 95ea 8c3e 8ab6 2c3e aa46 e0bd
00000290: 9fc9 763d ce2c ea3d 41e3 8ebe 8c00 87be
000002a0: 3112 4bbe 695f 153e 5788 093d f181 fabc
000002b0: 058b e9bc 1391 75be 943f e83d c1e4 25be
000002c0: a29f 05be fa5b 10bf 5109 71bd 1319 c2be
000002d0: 74fc 753e b3f2 1ebd 78ff 6abd c9e4 62be
000002e0: b689 cc3c 0a8a 403e bad3 d9be c9c8 ad3d
000002f0: e23e e8bd ade1 24bd 9e35 f3be d7cb 123e
00000300: 3e55 c0be 4749 16be eaf9 97be 63b4 133e
00000310: 426e 7bbe b4dc 53be 30fe 403e 8954 863d
00000320: ca26 f23b 2284 cd3d 8a18 9dbe 5307 69be
00000330: 2709 bfbe 8061 6f3d da20 92bd ae4d 203e
00000340: 0760 b03c 0a25 a33d a9c0 76be d97f 64be
00000350: 3c50 f13d 5029 91bd 1e81 72be 387c adbe
00000360: ce15 fe3d 2d36 72be 8f35 a3bd 5dd6 e5be
00000370: edc4 013e 1790 95bc ca23 88be 5f0a 0abe
00000380: e561 70be 0307 403d 78a8 81be 6a31 7a3d
00000390: 72a1 91be a045 c8ba de9d 9bbe 71f1 fdbd
000003a0: 9b69 f6bc e8ae 173e a5ba e8bd f097 6b3e
000003b0: e3ae 10bd 7efd c8be a774 fd3d afe6 e0be
000003c0: fea4 f33d 2d42 58be 2985 fa3d 7af6 e9bc
000003d0: 903a 373d 89c9 e33d 3610 853c 66e1 be3d
000003e0: 9d55 323d bf24 8ebe 031c 0a3e 2596 343e
000003f0: fe3c c1be ec7d 0dbd c629 fa3d a035 e2be

arith.constant1 f4 [128, 256]
0.118317045 -0.16677265 -0.11878814 -0.10261905 -0.0004283745 -0.05377021 -0.073622614 -0.09358505
-0.040253107 0.03498588 -0.0599107 0.16992255 0.008333969 0.30742043 0.13977085 0.08044608
0.08198844 -0.113944635 -0.057624135 -0.16326493 -0.015048806 -0.067149304 -0.12394922 0.042344045
-0.037682094 0.096559435 -0.01334893 0.110776454 0.05102173 -0.29211468 -0.19838218 -0.0023647954
-0.26601806 0.036941946 -0.3647309 0.1922582 -0.13884467 -0.049187645 0.09054015 0.05607205
0.12877731 0.043091863 0.022566188 -0.055986375 -0.029748665 -0.0034750998 -0.18789609 0.06133964
0.060818218 0.03944535 0.0933843 -0.06891714 -0.09928659 0.07965794 -0.11554065 -0.2646067
-0.08152788 -0.11118961 -0.089938864 0.198205 -0.047460303 -0.20098022 -0.13623916 -0.00042197108
0.020082781 -0.024543727 -0.07659286 0.08943874 -0.043618925 -0.19777198 -0.02324902 0.07326359
-0.24246988 -0.1448157 -0.07325813 0.057657827 0.12948516 0.15411873 0.10051201 -0.034660406
0.051695187 -0.036173463 -0.012333788 0.12559474 0.04853873 0.17419551 0.073943906 -0.25736317
-0.111524455 -0.029312128 -0.1463221 0.05043228 -0.13628973 -0.18255746 -0.051912773 -0.3185614
-0.3195849 0.10910288 -0.2520079 -0.037684355 0.019601503 -0.03586006 -0.1989709 -0.09110232
0.111088954 -0.11348269 0.12492242 -0.078489885 -0.034015644 -0.05464913 -0.16395068 -0.07265963
-0.21564402 -0.081799366 -0.23816843 -0.20172173 -0.022288103 0.15586737 0.09512764 -0.2950356
0.07115758 -0.00088650896 -0.12306375 0.024862248 0.1445474 -0.08497955 -0.056660123 0.0024387753
0.013450788 -0.116931096 -0.06879233 -0.1344235 -0.15844673 -0.33773816 -0.16117956 -0.046084125
-0.17306177 0.07547357 0.118345425 -0.35580343 -0.28863853 -0.038154274 -0.32417715 -0.028215526
-0.08595202 0.019858036 0.03002715 0.26264033 0.028120272 -0.06737287 0.15069473 -0.18014582
-0.058112063 0.1596679 -0.07665311 0.018768402 0.008189657 -0.18427707 3.8585313e-05 -0.08045701
0.02486545 -0.0743548 0.13624115 0.023479985 -0.014905328 0.051168006 0.1650722 -0.17239337
-0.084703356 0.075218 -0.12072087 -0.056240227 0.034422632 0.030599238 -0.2886806 0.048760466
-0.25269526 -0.15153825 -0.15753846 -0.006220519 0.0065280497 -0.16173674 -0.05226237 -0.27733737
-0.139883 -0.104583696 0.16688155 0.106192715 -0.13987836 -0.14299127 0.17065455 0.016566236
0.023798497 0.11950684 -0.11452788 0.072818056 0.10301195 -0.223974 -0.16114342 0.0039222008
-0.10483954 0.03354242 0.07367091 0.094296806 0.0026916098 0.050452333 -0.18352851 -0.0072677075
-0.20095553 0.018377224 0.20851392 0.08133288 -0.013686881 0.01253624 0.008284206 0.033475015
-0.1191103 0.12318533 -0.24397962 -0.23695469 0.16886197 -0.1228324 -0.29235187 -0.070733175
0.05201032 -0.09112228 0.07326122 -0.023503143 0.04097227 -0.016848307 -0.08020667 -0.10307003
-0.07559332 0.10989121 0.021905433 -0.14966194 0.14426464 -0.20852402 -0.14072387 -0.003238588
0.054014232 -0.08723375 -0.007407838 0.036308683 0.21582197 -0.028739814 -0.09848889 -0.015472495
-0.3653126 -0.05398585 0.017197259 0.008769817 -0.15800121 -0.033473585 -0.15071358 -0.039342936
00000000: 3550 f23d 73c6 2abe 3247 f3bd f029 d2bd
00000010: 7497 e0b9 273e 5cbd 74c7 96bd 85a9 bfbd
00000020: 71e0 24bd 5b4d 0f3d ec64 75bd 2d00 2e3e
00000030: 338b 083c 3666 9d3e 1720 0f3e eac0 a43d
00000040: 8ee9 a73d ce5b e9bd 4907 6cbd ec2e 27be
00000050: 448f 76bc 9385 89bd 17d9 fdbd f370 2d3d
00000060: 8a58 1abd f4c0 c53d 78b5 5abc c4de e23d
00000070: 29fc 503d 0e90 95be b324 4bbe affa 1abb
00000080: 8533 88be 7050 173d 02be babe 55df 443e
00000090: 4c2d 0ebe fc78 49bd 1d6d b93d ceab 653d
000000a0: 33de 033e 1881 303d badc b83c f851 65bd
000000b0: 79b3 f3bc 80be 63bb d567 40be 463f 7b3d
000000c0: 861c 793d 7391 213d 4540 bf3d 6e24 8dbd
000000d0: c556 cbbd b423 a33d 94a0 ecbd 887a 87be
000000e0: 17f8 a6bd 61b7 e3bd de31 b8bd 40f6 4a3e
000000f0: bc65 42bd c2cd 4dbe 4782 0bbe 003c ddb9
00000100: a584 a43c ed0f c9bc b8dc 9cbd a82b b73d
00000110: c2a9 32bd bd84 4abe bb74 bebc 390b 963d
00000120: 064a 78be 914a 14be 5c08 96bd 9d2a 6c3d
00000130: c297 043e 4dd1 1d3e 3ed9 cd3d 12f8 0dbd
00000140: 55be 533d a02a 14bd a813 4abc e89b 003e
00000150: 8cd0 463d 4f60 323e e76f 973d 1bc5 83be
00000160: ef66 e4bd fd1f f0bc 76d5 15be 1492 4e3d
00000170: 898f 0bbe 58f0 3abe 7da2 54bd 7b1a a3be
00000180: a2a0 a3be 5571 df3d 2e07 81be e95a 1abd
00000190: 5593 a03c 00e2 12bd 07bf 4bbe da93 babd
000001a0: 9b82 e33d 9d69 e8bd 53d7 ff3d 4ebf a0bd
000001b0: fd53 0bbd c4d7 5fbd b0e2 27be 92ce 94bd
000001c0: c9d1 5cbe 6d86 a7bd 6de2 73be 2490 4ebe
000001d0: 8a95 b6bc b29b 1f3e 48d2 c23d e80e 97be
000001e0: 11bb 913d 9c64 68ba d908 fcbd eaab cb3c
000001f0: 3c04 143e c209 aebd 7214 68bd dcd3 1f3b
00000200: b260 5c3c 9279 efbd fee2 8cbd 50a6 09be
00000210: dc3f 22be 04ec acbe 410c 25be b5c2 3cbd
00000220: 1b37 31be e391 9a3d 165f f23d de2b b6be
00000230: 6ec8 93be a847 1cbd 8cfa a5be 3f24 e7bc
00000240: 9d07 b0bd 52ad a23c 7ffb f53c cb78 863e
00000250: 7c5c e63c cafa 89bd b84f 1a3e 2578 38be
00000260: ea06 6ebd fb7f 233e 4efc 9cbd 31c0 993c
00000270: e92d 063c 21b3 3cbe aad6 2138 a5c6 a4bd
00000280: a1b2 cb3c 5447 98bd cd82 0b3e 1959 c03c
00000290: 7a35 74bc 8b95 513d b008 293e e387 30be
000002a0: f478 adbd e50b 9a3d 813c f7bd 275c 66bd
000002b0: bffe 0c3d 41ab fa3c f2cd 93be 0eb9 473d
000002c0: 4661 81be d82c 1bbe c351 21be 7fd5 cbbb
000002d0: 40e9 d53b 519e 25be 1111 56bd 2aff 8dbe
000002e0: 7d3d 0fbe fa2f d6bd ffe2 2a3e 917b d93d
000002f0: 463c 0fbe 4e6c 12be 11c0 2e3e eab5 873c
00000300: 11f5 c23c 01c0 f43d 988d eabd a221 953d
00000310: eef7 d23d 7159 65be c802 25be ce85 803b
00000320: 1db6 d6bd c763 093d c6e0 963d af1e c13d
00000330: b865 303b 1ba7 4e3d e6ee 3bbe f325 eebb
00000340: 49c7 4dbe d58b 963c ac84 553e da91 a63d
00000350: f13e 60bc cd64 4d3c 7aba 073c 191d 093d
00000360: 1af0 f3bd 9748 fc3d cbd5 79be 40a4 72be
00000370: 27ea 2c3e 8e8f fbbd 25af 95be 8edc 90bd
00000380: c608 553d 519e babd fa09 963d aa89 c0bc
00000390: 8ad2 273d 7605 8abc 6543 a4bd 6116 d3bd
000003a0: acd0 9abd a50e e13d 0673 b33c fb40 19be
000003b0: 1cba 133e 5287 55be eb19 10be 7e3e 54bb
000003c0: 073e 5d3d 9ca7 b2bd 73bd f2bb 6ab8 143d
000003d0: 6f00 5d3e c26f ebbc 8bb4 c9bd 5980 7dbc
000003e0: 410a bbbe 4420 5dbd 44e1 8c3c 47af 0f3c
000003f0: 12cb 21be 991b 09bd a954 1abe 0f26 21bd

arith.constant2 f4 [256, 784]
0.06359397 0.068814576 0.028205104 -0.062302787 0.034393936 0.052583694 0.05892153 -0.029857673
-0.022045422 -0.02528197 -0.02129364 0.03544341 -0.035891406 0.024221078 -0.05843852 -0.09034372
-0.0452072 0.034882113 -0.031214267 0.041259326 -0.080678545 0.042579636 0.0313797 0.022334844
0.013100348 -0.041653674 -0.05083163 -0.049483635 -0.026476867 0.003809303 0.06654978 -0.022320192
-0.072879694 -0.00794968 -0.051960662 0.03132736 -0.011622548 -0.0025024484 -0.089303344 -0.058049448
0.03357587 -0.015156528 0.024483064 0.04365757 -0.08339705 -0.08283759 0.011364973 0.014789067
0.051597014 -0.009569965 0.06544627 -0.03891638 -0.052836496 0.07405464 0.025803529 -0.010011211
-0.065187454 -0.041278288 -0.012164906 -0.035671774 0.03536082 -0.0328567 0.067545295 0.01758457
-0.03632338 7.771392e-05 -0.06576494 0.04161015 -0.08342316 -0.014613554 -0.042583168 -0.019080477
-0.08899373 0.003175387 -0.0028162827 -0.012650341 0.026843473 -0.033911053 -0.06793 0.050844684
-0.06697885 -0.004895948 0.03822966 0.028568715 0.061505854 -0.06323641 -0.05474077 0.058979526
0.006091282 -0.047218338 -0.060058244 0.016004123 0.0015153438 -0.039530262 0.04235529 -0.010531648
0.04058159 -0.04535128 0.028147263 -0.098304026 -0.04677089 -0.080420114 -0.08660023 -0.07913651
0.049248137 0.01552917 0.049156237 -0.062435668 -0.038497813 0.0022849664 0.04439836 0.03342872
-0.05245407 -0.014621705 0.032724917 -0.0067557245 0.019210376 -0.0027340204 -0.059980847 0.02034513
0.07561427 -0.060097545 -0.03661644 0.045616858 0.03876098 0.05870979 0.023108456 -0.007873921
0.028399978 -0.026747862 -0.07562701 -0.06635163 -0.05756333 0.05960897 0.0069012544 0.031742264
-0.042150743 -0.010310377 0.05871658 -0.0081000775 -0.047892958 0.029842444 0.02957698 -0.0073041096
0.02630885 -0.058169708 0.039834023 0.051296994 0.0055723265 0.07309995 -0.02250404 0.007283327
0.008489041 -0.0318702 -0.047199316 -0.06994212 -0.050569996 -0.07518496 -0.03249826 -0.07523691
0.009087528 -0.029950585 -0.01716656 0.02144563 0.06335617 -0.01748805 -0.062138844 -0.021324426
-0.0677009 -0.057319663 0.04048574 0.050394043 0.051808923 0.028404646 -0.062300812 0.013985291
0.0527689 0.039829887 -0.055504307 0.031590037 -0.020853423 0.056849256 -0.017133687 0.015436582
-0.046651304 -0.020684171 0.02363865 -0.07788036 0.014061712 -0.022839803 0.002762003 -0.019520544
-0.041070394 -0.018897556 0.058115438 -0.04474926 0.05145769 -0.046045244 -0.04194833 -0.07377668
0.04133343 -0.011907391 -0.015818141 0.038136058 -0.053995267 -0.0500048 -0.06415159 -0.011671938
-0.058727145 0.0686162 -0.017517056 -0.02490566 -0.010931254 -0.042313177 -0.021679295 0.03482408
0.043386873 -0.038606264 0.055458657 -0.010837026 0.029581219 0.04044461 0.007716716 -0.008048468
-0.058884747 -0.057897747 0.07160367 0.06700103 0.003879971 -0.027001891 -0.03925674 0.05720572
-0.060554724 0.056220666 0.012363677 0.05058664 -0.0633315 0.020455342 -0.07162215 0.045779698
-0.07053069 0.031963248 0.0046613286 -0.03832977 -0.1054617 0.021376615 -0.074034914 0.05032657
-0.012662977 0.041926585 -0.049177606 -0.041516423 0.054131523 0.004450947 0.038183734 -0.075845115
00000000: 8e3d 823d a8ee 8c3d 640e e73c 3531 7fbd
00000010: a8e0 0c3d 0062 573d b457 713d 1498 f4bc
00000020: 9a98 b4bc 221c cfbc 0070 aebc 1c2d 113d
00000030: de02 13bd 486b c63c 3b5d 6fbd 2106 b9bd
00000040: 2f2b 39bd 8ce0 0e3d 10b5 ffbc 8aff 283d
00000050: cb3a a5bd fc67 2e3d 0088 003d 90f7 b63c
00000060: d8a2 563c 0b9d 2abd d434 50bd 5aaf 4abd
00000070: 04e6 d8bc 80a5 793b 404b 883d d6d8 b6bc
00000080: f341 95bd 603f 02bc b4d4 54bd 1e51 003d
00000090: 806c 3ebc 1e00 24bb ace4 b6bd 42c5 6dbd
000000a0: da86 093d 1653 78bc b590 c83c 48d2 323d
000000b0: 13cc aabd c1a6 a9bd 2734 3a3c d84d 723c
000000c0: 6457 533d 58cb 1cbc b208 863d c866 1fbd
000000d0: 156b 58bd f6a9 973d ec61 d33c 1006 24bc
000000e0: 0081 85bd 6c13 29bd 504f 47bc 911c 12bd
000000f0: 82d6 103d bf94 06bd 3055 8a3d 840d 903c
00000100: d3c7 14bd 58fa a238 c5af 86bd 686f 2a3d
00000110: c3d9 aabd b06d 6fbc b06b 2ebd a94e 9cbc
00000120: 5842 b6bd 271a 503b 6291 38bb 6043 4fbc
00000130: d8e6 db3c 51e6 0abd e21e 8bbd 8442 503d
00000140: 352c 89bd 306e a0bb b496 1c3d f008 ea3c
00000150: 90ed 7b3d 1782 81bd dc37 60bd 8494 713d
00000160: 6099 c73b 0468 41bd a2ff 75bd 141b 833c
00000170: 809e c63a 7cea 21bd be7c 2d3d ef8c 2cbc
00000180: e238 263d 44c2 39bd 1795 e63c 9f53 c9bd
00000190: d592 3fbd 4db3 a4bd 765b b1bd 5312 a2bd
000001a0: 6ab8 493d 0f6e 7e3c 0d58 493d 8bbc 7fbd
000001b0: e2af 1dbd 60bf 153b 0edb 353d 8eec 083d
000001c0: 14da 56bd e08f 6fbc 900a 063d 205f ddbb
000001d0: 145f 9d3c 402d 33bb 7aae 75bd d4aa a63c
000001e0: a8db 9a3d d828 76bd 1ffb 15bd bed8 3a3d
000001f0: d5c3 1e3d ad79 703d f24d bd3c 9e01 01bc
00000200: 12a7 e83c 551e dbbc 55e2 9abd 5de3 87bd
00000210: 87c7 6bbd 8928 743d eb23 e23b 2d04 023d
00000220: 42a6 2cbd dbec 28bc cc80 703d 30b6 04bc
00000230: 682b 44bd 2478 f43c 6c4b f23c 5057 efbb
00000240: a885 d73c 5c43 6ebd 0029 233d cc1c 523d
00000250: 1098 b63b 6db5 953d 645a b8bc faa8 ee3b
00000260: 9e15 0b3c 548a 02bd 1254 41bd d03d 8fbd
00000270: 7c22 4fbd 93fa 99bd e51c 05bd cf15 9abd
00000280: dbe3 143c ee5a f5bc e3a0 8cbc bfae af3c
00000290: e1c0 813d 1943 8fbc 4d85 7ebd 90b0 aebc
000002a0: c5a6 8abd 06c8 6abd 60d4 253d fc69 4e3d
000002b0: 9835 543d dcb0 e83c 232f 7fbd 9022 653c
000002c0: 3424 583d aa24 233d 7c58 63bd 8e64 013d
000002d0: ccd4 aabc c4da 683d f25b 8cbc b8e9 7c3c
000002e0: 7015 3fbd da71 a9bc d8a5 c13c bd7f 9fbd
000002f0: 1863 663c 8a1a bbbc b902 353b 8ce9 9fbc
00000300: 6e39 28bd 0ccf 9abc 740a 6e3d 004b 37bd
00000310: 4cc5 523d f099 3cbd 03d2 2bbd 3a18 97bd
00000320: 3e4d 293d 3817 43bc 0c95 81bc 8e34 1c3d
00000330: 242a 5dbd d5d1 4cbd e961 83bd a83b 3fbc
00000340: e08b 70bd a686 8c3d ee7f 8fbc f406 ccbc
00000350: 0119 33bc 9550 2dbd c798 b1bc b2a3 0e3d
00000360: 6fb6 313d 9a21 1ebd 9e28 633d c88d 31bc
00000370: 5054 f23c 3fa9 253d 81dc fc3b b9dd 03bc
00000380: 2231 71bd 3026 6dbd f2a4 923d d637 893d
00000390: 1d47 7e3b 1233 ddbc adcb 20bd 8c50 6a3d
000003a0: 3b08 78bd a447 663d 0591 4a3c f033 4f3d
000003b0: f2b3 81bd f691 a73c a2ae 92bd 7e83 3b3d
000003c0: 6572 90bd e5eb 023d 0fbe 983b adff 1cbd
000003d0: 4efc d7bd 031e af3c 9e9f 97bd 3c23 4e3d
000003e0: 6078 4fbc 36bb 2b3d 756e 49bd 200d 2abd
000003f0: 04b9 5d3d 40d9 913b 8c66 1c3d af54 9bbd

arith.constant3 f4 [10]
-0.08957683 -0.47459492 0.12468889 0.32329246 -0.107174985 -0.040091593 0.10131464 0.337633
-0.033690836 -0.4923855
00000000: 0f74 b7bd 1bfe f2be e45c ff3d 9786 a53e
00000010: 8f7e dbbd 1537 24bd 0d7e cf3d 3cde ac3e
00000020: 67ff 09bd f419 fcbe

arith.constant4 f4 [256]
-0.022801168 0.105326176 0.30606848 0.1919642 0.30596158 -0.045784164 0.15263851 -0.47259083
0.22319452 -0.31455317 0.51091456 0.18027735 -0.15421683 0.14613469 0.3922409 0.03654667
-0.00811423 -0.052035294 -0.04343581 0.13976558 0.29962194 0.17995875 0.08522662 0.07190751
-0.04683441 0.37317836 0.038489632 0.38947496 0.22869359 0.1637826 -0.3506018 -0.024971997
0.38262242 0.014839591 0.05597379 0.34124735 0.38829356 0.07471207 0.5692942 -0.021735253
-0.23095652 -0.020564992 -0.37574875 0.21013476 -0.32566765 -0.010085732 -0.3555694 -0.0074233776
-0.03971212 -0.06347163 -0.06469158 0.018552868 0.28594705 0.37597236 0.3571351 0.47416702
-0.037826497 -0.066135325 -0.03174906 0.4138319 0.3759894 0.3315037 0.43839142 -0.039563738
-0.0014573094 -0.090663046 0.31385103 -0.007858243 -0.02865961 0.18431862 -0.09781876 -0.007905425
0.12956446 0.28591534 -0.03499565 -0.020065978 -0.29477334 0.3547958 -0.13390784 0.10850379
0.20594475 -0.010333658 0.36595178 0.47550607 -0.25575265 -0.20856574 0.0052492665 0.107632846
-0.074573204 -0.13176699 0.3479231 -0.01957036 0.17289051 -0.17841858 0.28537008 -0.046932653
0.30704466 0.10893465 -0.1638811 0.3643169 -0.2732084 0.10818822 0.14348546 -0.20953345
-0.048944104 -0.026705053 -0.019766835 -0.015007821 -0.1179963 0.069567144 0.37855807 -0.00024374796
0.29702547 -0.021937808 0.56851226 -0.040822905 0.46658644 0.23676391 -0.019472472 -0.26106426
-0.012832242 0.030493502 -0.012270224 -0.4672577 -0.3293633 -0.02025513 0.47545075 -0.015384788
-0.009765056 0.19000597 0.11758745 0.19333965 -0.32613912 0.21031755 -0.023341559 -0.26416254
-0.25882092 0.5296693 0.32217342 0.01155138 0.2531348 0.019277722 0.11505591 0.3569979
0.30765897 0.05566836 -0.011209655 -0.078563936 0.27011865 0.0921292 -0.5005081 0.015652647
0.3206578 0.1961304 0.16517071 -0.036049135 0.1604611 0.060483463 0.11003188 0.21062905
-0.3011545 -0.030320095 -0.20219444 -0.026801897 -0.012764647 0.4206946 0.21524912 -0.08190702
-0.009190471 0.04050029 -0.5287315 -0.0072306236 -0.3024973 -0.03091891 -0.11213862 0.24026424
-0.027400654 0.3062962 0.22696018 0.18014246 -0.021194944 0.17695615 -0.03716232 0.24071105
-0.18882497 0.34631917 0.33114648 0.10646877 -0.064136595 0.33769554 0.097235076 -0.015129084
0.0037848447 -0.020769387 0.23413573 0.082132645 -0.008793555 0.16487801 0.11899828 -0.09735374
0.1354631 -0.0029201666 -0.33074877 0.32879692 -0.05784868 0.25228432 0.26248842 0.20157878
-0.70079434 -0.019693531 -0.098121196 0.37040243 0.13397884 0.038004916 0.06570514 0.30605397
0.031120032 0.18907985 0.075910605 0.10908875 -0.012351468 0.02617542 -0.34207565 -0.035686523
-0.68800217 0.19734037 -0.3341926 0.42873704 -0.03405302 -0.25842452 0.34262982 0.274762
0.025394209 0.13351615 0.08551488 0.19106159 0.4871495 0.3871269 -0.4641049 -0.3796324
-0.12828344 -0.17641212 0.10047147 0.31198165 0.34462902 0.20304431 -0.0222055 -0.32699788
-0.31684723 -0.26504058 0.07346213 0.25957814 0.09018536 0.2428608 -0.10608052 0.15167059
00000000: 84c9 babc 40b5 d73d 02b5 9c3e 4392 443e
00000010: ffa6 9c3e 2d88 3bbd 454d 1c3e 6df7 f1be
00000020: 1b8d 643e 1d0d a1be 4ccb 023f a09a 383e
00000030: 04eb 1dbe 55a4 153e cdd3 c83e f6b1 153d
00000040: 8cf1 04bc f622 55bd bfe9 31bd b51e 0f3e
00000050: 0c68 993e 1b47 383e 4b8b ae3d 3f44 933d
00000060: 70d5 3fbd 3c11 bf3e 4ea7 1d3d 4369 c73e
00000070: a72e 6a3e a0b6 273e 1482 b3be 1392 ccbc
00000080: 16e7 c33e c221 733c c644 653d f9b7 ae3e
00000090: 6ace c63e a402 993d 44bd 113f 210e b2bc
000000a0: de7f 6cbe ea77 a8bc 2462 c0be 912d 573e
000000b0: e9bd a6be a03e 25bc 310d b6be ce3f f3bb
000000c0: 2da9 22bd 6afd 81bd 057d 84bd 2ffc 973c
000000d0: a767 923e 737f c03e 69da b63e 05c6 f23e
000000e0: f5ef 1abd f571 87bd 4d0b 02bd c6e1 d33e
000000f0: af81 c03e daba a93e d774 e03e 960d 22bd
00000100: 3003 bfba 8cad b9bd 15b1 a03e dcbf 00bc
00000110: 8fc7 eabc 05be 3c3e 3455 c8bd c185 01bc
00000120: 8cac 043e 7f63 923e 9957 0fbd 6861 a4bc
00000130: 88ec 96be cca7 b53e 231f 09be 3c37 de3d
00000140: 2ee3 523e 814e 29bc 085e bb3e 8875 f33e
00000150: 03f2 82be 4292 55be 0a02 ac3b 9c6e dc3d
00000160: d6b9 98bd eded 06be fa22 b23e 0552 a0bc
00000170: 360a 313e 5cb3 36be 071c 923e 743c 40bd
00000180: f534 9d3e 2119 df3d 72d0 27be bf87 ba3e
00000190: f9e1 8bbe c991 dd3d daed 123e f08f 56be
000001a0: 9d79 48bd 8ec4 dabc 0fee a1bc 5de3 75bc
000001b0: 0ba8 f1bd 3879 8e3d 5dd2 c13e 9896 7fb9
000001c0: b913 983e ebb6 b3bc 058a 113f eb35 27bd
000001d0: 6be4 ee3e 3d72 723e bc84 9fbc 37aa 85be
000001e0: 533e 52bc 82cd f93c 0d09 49bc 673c efbe
000001f0: 4ea2 a8be 16ee a5bc 486e f33e 7a10 7cbc
00000200: 9dfd 1fbc ed90 423e b0d1 f03d d4fa 453e
00000210: b5fb a6be 7c5d 573e cc36 bfbc 5040 87be
00000220: 2d84 84be 6898 073f eaf3 a43e 0042 3d3c
00000230: e29a 813e 50ec 9d3c 6fa2 eb3d 6ec8 b63e
00000240: 7a85 9d3e 8204 643d b3a8 37bc 21e6 a0bd
00000250: fe4c 8a3e 3cae bc3d 4d21 00bf fb39 803c
00000260: 422d a43e 68d6 483e 8322 293e 42a8 13bd
00000270: ea4f 243e 82bd 773d 6558 e13d 24af 573e
00000280: ec30 9abe d961 f8bc 0f0c 4fbe a78f dbbc
00000290: cf22 51bc 4865 d73e 446a 5c3e debe a7bd
000002a0: a193 16bc a2e3 253d f35a 07bf deee ecbb
000002b0: ede0 9abe a749 fdbc efa8 e5bd d407 763e
000002c0: 5677 e0bc dbd2 9c3e 4068 683e 4477 383e
000002d0: 05a1 adbc fe33 353e 8437 18bd f57c 763e
000002e0: 555b 41be bf50 b13e 088c a93e 4c0c da3d
000002f0: 0c5a 83bd 6ee6 ac3e 2f23 c73d fadf 77bc
00000300: 280b 783b 9024 aabc 47c1 6f3e 2935 a83d
00000310: d812 10bc c8d5 283e 5fb5 f33d 6661 c7bd
00000320: d7b6 0a3e 4460 3fbb e757 a9be 1258 a83e
00000330: bdf2 6cbd 692b 813e e264 863e ab6a 4e3e
00000340: 4267 33bf 5454 a1bc c4f3 c8bd 63a5 bd3e
00000350: c031 093e 0bab 1b3d 6b90 863d 1bb3 9c3e
00000360: 70ef fe3c 269e 413e 0577 9b3d ec69 df3d
00000370: d05d 4abc d66d d63c 8a24 afbe 082c 12bd
00000380: e920 30bf 9813 4a3e 4b1b abbe 6c83 db3e
00000390: 2e7b 0bbd 3850 84be 2d6d af3e 9bad 8c3e
000003a0: 8407 d03c 75b8 083e 6d22 af3d a6a5 433e
000003b0: a96b f93e 7f35 c63e 289f edbe 2e5f c2be
000003c0: bc5c 03be 61a5 34be fcc3 cd3d 0fbc 9f3e
000003d0: 3773 b03e d9ea 4f3e 4fe8 b5bc 446c a7be
000003e0: cd39 a2be 66b3 87be 5073 963d 6de7 843e
000003f0: 1ab3 b83d 80b0 783e be40 d9bd 894f 1b3e

arith.constant5 f4 [128]
0.049535614 0.17405857 0.16193582 0.3247326 0.25317279 0.23573017 0.08692145 0.062149502
0.33464348 0.15094885 0.10012297 0.19557956 0.4190672 0.11898627 0.386457 -0.020305563
0.21569665 0.3618904 0.20066136 0.16735882 0.21893322 0.12459393 0.21595462 0.025482161
0.21899644 -0.02527649 0.33361232 0.22734827 0.14478841 0.07983212 -0.06899472 0.29162705
0.20991035 -0.09233255 -0.14150232 -0.091534585 0.46855536 0.20181875 0.45595318 0.2754817
0.14711489 -0.03332473 0.32139215 0.027717087 0.22970411 0.34604836 -0.14390363 0.094401635
0.4290276 0.2718765 0.08875806 0.31962585 0.13024417 0.37597725 0.47060886 0.22674622
0.08165399 -0.045007776 0.25361124 0.21000192 0.34793386 0.5175183 0.0155553585 0.12152432
0.28879735 0.14884262 0.47136164 0.3218172 0.31643602 0.30931026 -0.0089305565 0.1817476
0.123556465 0.14652725 0.2888882 0.21272735 0.36594382 0.18649116 0.10096673 0.16677192
-0.014854263 -0.1673813 -0.057785787 -0.099926 -0.03933198 0.13101222 0.2501914 -0.034050886
0.19457683 0.020620916 0.31925884 0.3103345 0.3122939 0.15517157 0.20118666 0.17352082
0.10140406 0.08993046 0.22553496 0.30499172 0.11752611 0.34811282 0.49579793 -0.024909912
0.25578618 0.25579655 0.1677732 -0.04164967 0.22062807 0.14881891 0.43391207 0.17509225
0.059249923 0.40203202 0.13777663 0.105782405 0.00054845645 -0.09779241 -0.12932947 0.1130406
0.20012055 0.32812127 0.0033629932 0.258643 0.4172207 0.23810989 0.017523639 -0.021398075
00000000: dbe5 4a3d 693c 323e 81d2 253e 5a43 a63e
00000010: dd9f 813e 4063 713e e003 b23d 7a90 7e3d
00000020: 6456 ab3e 5692 1a3e 460d cd3d 0246 483e
00000030: fa8f d63e 13af f33d b1dd c53e da57 a6bc
00000040: 95df 5c3e b349 b93e 2c7a 4d3e 1c60 2b3e
00000050: 0830 603e 1a2b ff3d 3523 5d3e f7bf d03c
00000060: 9a40 603e a410 cfbc 3ccf aa3e fccd 683e
00000070: 6a43 143e 067f a33d 1b4d 8dbd 2450 953e
00000080: bdf2 563e d918 bdbd fce5 10be 7c76 bbbd
00000090: 7de6 ef3e 93a9 4e3e b272 e93e f00b 8d3e
000000a0: 49a5 163e 837f 08bd 838d a43e f20e e33c
000000b0: 8e37 6b3e 402d b13e 795b 13be a555 c13d
000000c0: 81a9 db3e 6633 8b3e c9c6 b53d 00a6 a33e
000000d0: ba5e 053e 1780 c03e a5f3 f03e 2930 683e
000000e0: 353a a73d 135a 38bd 55d9 813e be0a 573e
000000f0: 6324 b23e 147c 043f e7db 7e3c bee1 f83d
00000100: 3fdd 933e 336a 183e 5056 f13e 39c5 a43e
00000110: e703 a23e ea5d 9e3e 7851 12bc 0b1c 3a3e
00000120: 2c0b fd3d 3d0b 163e 27e9 933e 33d5 593e
00000130: fd5c bb3e 8af7 3e3e a5c7 ce3d 42c6 2a3e
00000140: 4b5f 73bc 0166 2bbe cab0 6cbd 01a6 ccbd
00000150: 921a 21bd 1128 063e 1619 803e f178 0bbd
00000160: 263f 473e 32ed a83c e575 a33e 2ae4 9e3e
00000170: fce4 9f3e 4ce5 1e3e e003 4e3e 71af 313e
00000180: efac cf3d 762d b83d a3f2 663e e027 9c3e
00000190: 87b1 f03d d83b b23e 3ad9 fd3e df0f ccbc
000001a0: 68f6 823e c4f7 823e bdcc 2b3e d898 2abd
000001b0: 53ec 613e fc63 183e b929 de3e 624b 333e
000001c0: 0cb0 723d 24d7 cd3e 5115 0d3e 72a4 d83d
000001d0: 4ac6 0f3a 6347 c8bd f26e 04be d581 e73d
000001e0: 67ec 4c3e 83ff a73e aa65 5c3b db6c 843e
000001f0: f49d d53e 14d3 733e bc8d 8f3c 044b afbc
